backend/saved_model.pkl (torch, 651091 bytes, 7 tensors)

weight f4 [868, 128]
0	0xbf719467	-0.9436707
1	0x3e054629	0.13015045
2	0x3db74431	0.08948553
3	0xbdfff6c6	-0.1249824
4	0xbe860fe4	-0.26184
5	0xbe39fd08	-0.1816293
6	0x3f90602c	1.1279349
7	0x3e05a0fc	0.13049692
8	0xbdb554e4	-0.08854082
9	0xbfc1619a	-1.5107911
10	0x3fefe8cd	1.874292
11	0xbf83c2a8	-1.0293779
12	0xbf9a6db6	-1.2064731
13	0x3ef9db98	0.4880035
14	0x3e705951	0.23471572
15	0x3eca2130	0.39478445
16	0xbe7b8097	-0.24560772
17	0xbef94268	-0.48683476
18	0x3f71fb81	0.9452439
19	0x3f60a817	0.87756485
20	0x3f734bd4	0.9503758
21	0xbf933b06	-1.1502388
22	0xbf9305fb	-1.14862
23	0xbee3850f	-0.44437453
24	0xbfbc32ba	-1.470298
25	0xbde05db2	-0.10955371
26	0xbe973bd7	-0.29537842
27	0xbf18a6ce	-0.59629524
28	0x3f754b27	0.958178
29	0xbf0c4431	-0.5479155
30	0x3fb21784	1.3913426
31	0xbed40112	-0.41407067
32	0x3f88cd6f	1.0687693
33	0xbf8963a9	-1.0733539
34	0xbeaef3d6	-0.34170407
35	0xbf48c740	-0.7842903
36	0xbddf7786	-0.10911469
37	0x3efa69d7	0.48908874
38	0xbf493e7f	-0.78610986
39	0x3f88a924	1.0676618
40	0x3f71b813	0.944215
41	0x3dd84ba9	0.10561306
42	0x3f2062b1	0.6265059
43	0xbf30efb8	-0.6911578
44	0xbcbd3c1b	-0.02309995
45	0x3fb4b9d9	1.4119216
46	0x3e852850	0.26007318
47	0xbf8e963f	-1.1139601
48	0x3f04da87	0.51895946
49	0xbeec3803	-0.46136484
50	0x3e12bb65	0.14329298
51	0x3f3536b2	0.70786583
52	0x3f03ee15	0.5153516
53	0xbfcd9bf3	-1.6063217
54	0x3f871a8b	1.0554975
55	0xbeb394a8	-0.35074353
56	0xbf12f09a	-0.5739838
57	0xbfdc1c81	-1.7196199
58	0x3eae21d7	0.34010193
59	0xbe27adf0	-0.16374946
60	0xbf4ec4dd	-0.8076914
61	0x3e38db61	0.18052436
62	0xbca5df4e	-0.020248082
63	0xbf151c57	-0.5824637
64	0x3ec0e694	0.37675917
65	0xbf509879	-0.81482655
66	0x3fa1cf5d	1.2641407
67	0x3d852e87	0.06503015
68	0x3f803719	1.0016814
69	0xbfa35152	-1.2759192
70	0x3f8f193b	1.1179575
71	0x3e7f3d71	0.24925782
72	0xbd859a89	-0.06523616
73	0xbe196f8a	-0.14983955
74	0xbf2ba2d5	-0.67045337
75	0xbcc98a34	-0.024602033
76	0xbe9b3889	-0.3031657
77	0xbe98919e	-0.29798597
78	0xbf3804a4	-0.7188208
79	0xbf8c59ea	-1.096494
80	0xbf071e13	-0.52780265
81	0xbfc9d1c9	-1.5767146
82	0x3f98dea5	1.1942946
83	0x3e8c50aa	0.27405292
84	0x3f1a8f2f	0.6037473
85	0x400d8ec1	2.211838
86	0x3fc69402	1.5513918
87	0x3f78680f	0.9703378
88	0xc01a818d	-2.4141572
89	0x3edc95b7	0.43082973
90	0x3d8163b0	0.06317842
91	0x3fbbc24f	1.4668673
92	0xbf2afb2b	-0.667895
93	0xbea684c8	-0.3252318
94	0x3eda76c7	0.42668745
95	0xbe0edbbe	-0.13951012
96	0xbf80a857	-1.0051373
97	0x3f11737d	0.56816846
98	0xbf172465	-0.5903991
99	0x3e12d63e	0.1433954
100	0xbfc5292e	-1.5403192
101	0xbf9b07e6	-1.2111785
102	0x3ea98b83	0.33114251
103	0xbf1cc8ce	-0.61243904
104	0xbfc085c2	-1.504082
105	0xc0093a28	-2.1441746
106	0xbf9d317f	-1.228073
107	0x3e9aa3af	0.30203006
108	0xbffd616f	-1.9795359
109	0x3eec439e	0.46145338
110	0x3f13dac5	0.5775569
111	0x3f16ba69	0.5887819
112	0xbfa8d930	-1.319128
113	0xbf1bd96d	-0.6087864
114	0x3fd4c8cf	1.6623782
115	0x3fbec510	1.4903889
116	0x3deb1a32	0.11479606
117	0x3fca0a7c	1.578445
118	0x3ee952ad	0.4557089
119	0x3f8e77a4	1.1130261
120	0x3ee99feb	0.4562982
121	0xbf84f947	-1.0388573
122	0xbfdeee38	-1.7416449
123	0xbf0171f6	-0.50564516
124	0xc0448120	-3.0703812
125	0x3f3b7f2e	0.73240936
126	0x3d180e87	0.03712323
127	0x3faadb5d	1.3348194
128	0x3edbeb68	0.42953038
129	0x3ee7a155	0.45240274
130	0x3f79fab2	0.97648156
131	0x3f2fff04	0.687485
132	0x3e96cddb	0.2945393
133	0xbfca7688	-1.5817423
134	0xbfa792cc	-1.3091674
135	0x3f1dff68	0.61717844
136	0x3f6cf8a2	0.92566884
137	0x3f1425c5	0.5787013
138	0x3f737637	0.95102257
139	0xbe8a2462	-0.26980883
140	0x3d6b19a1	0.05739749
141	0x3f9d2a4f	1.2278537
142	0xbfa784c6	-1.3087394
143	0x3f27a5a8	0.65487146
144	0x3f3f1aae	0.74650085
145	0x3e12e09b	0.14343493
146	0xbf5265e0	-0.821867
147	0xbe34d3f2	-0.17658976
148	0xbfbf7e04	-1.4960332
149	0xbdc862c9	-0.09784467
150	0xbfe236cf	-1.7672976
151	0xbbc81634	-0.0061061624
152	0x4018f4f4	2.3899508
153	0xbfcd97ee	-1.606199
154	0x3f77b08d	0.9675377
155	0xbe97397d	-0.29536048
156	0x3f31b756	0.69420373
157	0x3ecc1a08	0.3986361
158	0xbf0ad9a4	-0.54238343
159	0x3f9dddcd	1.2333313
160	0x3f3399b3	0.701564
161	0xbf9a6bce	-1.2064149
162	0x3fdf55c4	1.7448049
163	0xbd92b9f2	-0.071643725
164	0xbf741892	-0.9534999
165	0xbf651622	-0.89486897
166	0xbe309e49	-0.17247881
167	0xbf2f453d	-0.68465024
168	0x3f51a9a1	0.8189946
169	0x3e97a11f	0.29615113
170	0x3f5bda60	0.8588009
171	0xbecec93c	-0.40387905
172	0x3f7316fc	0.94956946
173	0x3eac4699	0.33647612
174	0xbf781f07	-0.96922344
175	0x3f2ab288	0.6667867
176	0x3f9d0212	1.2266257
177	0x3f44c5d0	0.7686434
178	0xbf8dae8d	-1.1068894
179	0x3fac8720	1.3478737
180	0x3efa1221	0.48841956
181	0xbfa822d6	-1.3135631
182	0xbf7077c6	-0.9393276
183	0xbf9f2c85	-1.2435461
184	0xbf467acc	-0.77531123
185	0x401c1192	2.4385724
186	0x3f71f30b	0.9451148
187	0x3de197d8	0.1101529
188	0xbee35494	-0.44400465
189	0x3f139c6f	0.57660574
190	0x3e629f31	0.22131039
191	0xbf0aaee8	-0.54173136
192	0x3f5840b1	0.8447371
193	0x3f90fb27	1.1326646
194	0xbf003292	-0.50077164
195	0xbda25b59	-0.079275794
196	0x3e700949	0.23441042
197	0xbdc6ba9d	-0.097035624
198	0xbec58464	-0.3857757
199	0x3f11477e	0.56749713
200	0xbf950c17	-1.1644315
201	0x3f579ad7	0.8422064
202	0x3f70b7cc	0.9403045
203	0x3f9634de	1.1734884
204	0x3fa8bb69	1.3182193
205	0xbe062754	-0.1310094
206	0x3f09691f	0.5367603
207	0x3ee961bd	0.4558238
208	0xbf11510c	-0.5676429
209	0xbddd7b39	-0.108145185
210	0xbfdfe54c	-1.7491851
211	0x3f683c52	0.9071704
212	0x3fe2e6a1	1.7726632
213	0x3ef989e5	0.48738018
214	0x3fae8039	1.363288
215	0x3f3369ab	0.7008311
216	0xbd93cf57	-0.07217281
217	0xbf4e773e	-0.806507
218	0x3daab3d0	0.08335078
219	0xbf0db853	-0.5535938
220	0xbc953897	-0.01821546
221	0x400428aa	2.064982
222	0x3f347173	0.7048561
223	0x3e5d4598	0.21608579
224	0x3e92b76a	0.2865556
225	0x3f1cde73	0.6127693
226	0x3ef8ef9a	0.486203
227	0xbe6593a2	-0.22419599
228	0xbfd9f0a6	-1.7026565
229	0xbfcd20f4	-1.6025681
230	0x3f9308b3	1.148703
231	0xbf5f396e	-0.87197006
232	0xbf871059	-1.0551864
233	0x3f1e43dd	0.618223
234	0x3eb903e5	0.36135784
235	0xbf2c88b8	-0.67396116
236	0x3d30fbee	0.04320901
237	0x3c158eee	0.009128315
238	0x3fbd3a22	1.4783366
239	0x3f019dd9	0.5063148
240	0x4006d847	2.1069505
241	0x3e4ad03b	0.19805996
242	0xbfa4dbb6	-1.287955
243	0x3f406dc9	0.7516752
244	0x3f9ffe8e	1.2499559
245	0xbdc991b6	-0.09842245
246	0xbfab3253	-1.3374733
247	0x3d57d198	0.05269012
248	0xbf5dbef2	-0.86619484
249	0xbfadd462	-1.3580439
250	0xbee39900	-0.44452667
251	0xbf976aec	-1.1829505
252	0xbf5707be	-0.8399619
253	0x3f97f8f5	1.1872851
254	0x3f6fb1b7	0.93630546
255	0x3f101fa0	0.56298256

weight_ih_l0 f4 [256, 128]
0	0xbd5e23d4	-0.054233387
1	0x3cf1d2a2	0.029519383
2	0xbd053f40	-0.032531023
3	0xbdbbf270	-0.09177101
4	0x3a994876	0.0011694569
5	0xbe06f1b8	-0.13178146
6	0xbd910999	-0.07081909
7	0xbce902f0	-0.028443784
8	0x3d30941c	0.043109998
9	0x3e06b5bc	0.13155264
10	0xbd81c72f	-0.063368194
11	0xbde4e51d	-0.111765124
12	0xbd9a1fdd	-0.07525609
13	0xbd7a86a0	-0.061163545
14	0xbc9cbb75	-0.019132355
15	0x3cc1e849	0.023670333
16	0xbb8758bf	-0.0041304524
17	0x3cafa773	0.02144215
18	0x3cdd422c	0.027009092
19	0xbd735126	-0.05940356
20	0x3dbfc829	0.093643494
21	0xbc087584	-0.008328799
22	0xbd3a43ee	-0.04547494
23	0x3dcb64b3	0.09931316
24	0x3c32de47	0.010917253
25	0xbe084ae1	-0.13309814
26	0x3c3adaf6	0.011404743
27	0xbcfaf8d6	-0.030636232
28	0x3d8738e3	0.06602647
29	0x3cadee7e	0.021231886
30	0x3c5600ca	0.013061712
31	0x3c54d74e	0.012990786
32	0x3cff4844	0.031162389
33	0xbd296dfa	-0.041364647
34	0x3e1c08b3	0.15237693
35	0x3dd32e14	0.10311523
36	0x3d41644b	0.047214787
37	0xbd8bacdb	-0.06820079
38	0x3dd07ceb	0.10180076
39	0x3c0d8d74	0.008639682
40	0xbdc9a2e3	-0.09845521
41	0xbe04d14e	-0.12970468
42	0x3af833b8	0.0018936312
43	0x3d2020b5	0.03909369
44	0x3df71b5a	0.12065764
45	0xbbc461c8	-0.0059931017
46	0xbd8b404f	-0.06799375
47	0x3d76ae0f	0.06022459
48	0x3d1da691	0.03848893
49	0x3bfc3667	0.007696915
50	0x3a9e9282	0.0012098106
51	0xbd919b1c	-0.07109663
52	0x3d9f7de2	0.07787682
53	0x3a9ec070	0.0012111794
54	0x3c772b85	0.015086059
55	0xbd73befd	-0.059508312
56	0xbe03e78c	-0.12881297
57	0x3d5dc20b	0.054140132
58	0x3bb41a8c	0.0054963287
59	0xbcc725fb	-0.024310103
60	0x3d33f8dd	0.043938506
61	0xbd97f862	-0.07420422
62	0x3d78a3b1	0.060702983
63	0xbdd6a715	-0.10481087
64	0xbdb72ab7	-0.08943694
65	0xbda2afdc	-0.07943699
66	0xbe05e269	-0.1307465
67	0x3e07bdb9	0.13255967
68	0x3cac43cc	0.021028422
69	0x3c0c0eeb	0.008548479
70	0xbc245010	-0.010028854
71	0x3da58b0b	0.08083161
72	0x3c112f3d	0.00886136
73	0x3d4cf822	0.050041325
74	0x3dc06436	0.09394114
75	0xbd0208b0	-0.031746566
76	0xbd142b7a	-0.036174275
77	0x3d64d562	0.05586756
78	0xbd3f351c	-0.04668151
79	0x3bb17422	0.0054154554
80	0x3e1067e4	0.14102131
81	0xbdef8015	-0.116943516
82	0xbd13128a	-0.035906352
83	0x3dab8189	0.08374316
84	0xbdf11675	-0.117718615
85	0xbe187ea0	-0.14892054
86	0x3d84e27e	0.064885125
87	0xbe14061c	-0.14455456
88	0x3d8c2ae9	0.06844122
89	0xbcf66995	-0.030079642
90	0xbd400925	-0.04688372
91	0x3d936b3d	0.071981885
92	0x3c2856d4	0.010274608
93	0xbd3bdceb	-0.04586498
94	0x3ce1e27e	0.02757382
95	0xbdb627b5	-0.08894292
96	0xbd050a2d	-0.032480408
97	0x3cf9531f	0.030435143
98	0x3d6e583f	0.058189627
99	0x3d41b0ad	0.04728763
100	0xbd191ee5	-0.03738298
101	0x3d62e829	0.055397186
102	0x3c928fe4	0.017890878
103	0x3de00cd9	0.109399505
104	0x3dca3004	0.098724395
105	0xbccef0b5	-0.025261262
106	0x3e21b4e4	0.1579166
107	0x3d6ad39b	0.05733071
108	0x3de241bc	0.11047694
109	0xbc83d70e	-0.016093757
110	0xbd9ccb9e	-0.076560244
111	0xbd132bb3	-0.035930347
112	0x3db6062e	0.088878974
113	0x3d497b63	0.049189936
114	0xbd96ad8b	-0.073573194
115	0x3d1071ed	0.035264898
116	0x3e0a1683	0.1348515
117	0xbd768f63	-0.060195338
118	0xbdc0bd68	-0.094111264
119	0x3dd47326	0.10373525
120	0x3c3f0b50	0.011660412
121	0xbd290097	-0.04126033
122	0xbe037151	-0.12836196
123	0xbda8377b	-0.08213707
124	0x3c6dcfaf	0.014514848
125	0x3e1501d0	0.14551473
126	0x3c45cba7	0.01207248
127	0x3d34ab9f	0.044108983
128	0x3da1d8db	0.0790269
129	0xbd822050	-0.06353819
130	0x3c79e18b	0.015251528
131	0x3d65c954	0.056100205
132	0xbd8a0814	-0.06739822
133	0xbd68c92e	-0.056832485
134	0xbdc58bb2	-0.096457854
135	0x3dc7b9b0	0.09752214
136	0xbded47e3	-0.11585977
137	0x3da6d989	0.0814696
138	0xbd67a65a	-0.05655513
139	0xbe0d1f52	-0.13781479
140	0x3d006908	0.031350166
141	0xbd86e890	-0.065873265
142	0xbdee4bf4	-0.11635581
143	0x3d07b23b	0.03312896
144	0xbdcbfa27	-0.09959822
145	0xbdfe9e5a	-0.12432547
146	0x3d8cc51b	0.068735324
147	0xbcec6d36	-0.02886067
148	0x3c57f2b1	0.013180421
149	0xbe0f6af0	-0.14005637
150	0xbcbbba94	-0.022916116
151	0xbd0f553a	-0.034993388
152	0xbd224d52	-0.03962452
153	0x3d80d13b	0.062899075
154	0xbbe2027e	-0.0068972697
155	0x3cd7c0d8	0.026337072
156	0xbd267f03	-0.04064847
157	0x3c900141	0.017578723
158	0xbce26f41	-0.02764094
159	0xbda25880	-0.07927036
160	0xbe2c6b7a	-0.16837874
161	0x3e0580d3	0.13037424
162	0xbd89d38f	-0.06729805
163	0x3dfd2519	0.123605914
164	0x3dad5dc7	0.08465152
165	0xbdbcd629	-0.09220535
166	0x3d9114ae	0.070840225
167	0x3c7f88c6	0.015596574
168	0x3cff53aa	0.031167824
169	0xbc013dca	-0.007888267
170	0xbe0cca38	-0.13749015
171	0x3d76766d	0.060171533
172	0x3d408add	0.04700743
173	0x3d05a07a	0.032623746
174	0xbdc8a623	-0.09797313
175	0x3d0b6d0d	0.034039546
176	0x3bfd7ca2	0.0077358047
177	0xbc2fb36d	-0.010723931
178	0x3cc9ea69	0.024647908
179	0x3d7f66ce	0.0623539
180	0x3d87a0f5	0.06622497
181	0x3cbdf487	0.023187889
182	0xbd218dae	-0.039441757
183	0xbda7f4c1	-0.0820098
184	0xbbd1489e	-0.0063868305
185	0x3df9fa8a	0.1220599
186	0xbc5e44bd	-0.013566193
187	0x3d46b5bf	0.04851317
188	0xbca86757	-0.020557089
189	0x3ce9cd52	0.028540287
190	0x3d73562b	0.059408348
191	0xbd92b732	-0.07163848
192	0xbda8561c	-0.08219549
193	0xbde2b5d0	-0.11069834
194	0x3ceb2ea6	0.028708767
195	0xbd5533b6	-0.05205127
196	0x3d8971bb	0.067111455
197	0xbd10def0	-0.03536886
198	0xbe0a1395	-0.13484032
199	0xbd5dc394	-0.054141596
200	0xbcc87983	-0.024472004
201	0xbd5fece0	-0.05466926
202	0xbc00e507	-0.007867104
203	0xbdf3c152	-0.11902107
204	0xbd1a0f60	-0.03761232
205	0xbbbb1012	-0.005708703
206	0x3d3567c2	0.044288404
207	0xbdd9c4ed	-0.10633264
208	0xbdcb179b	-0.09916612
209	0xbd023cb5	-0.031796176
210	0x3d1cf0ed	0.038315702
211	0xbda72ef7	-0.08163255
212	0xbdc24198	-0.09485167
213	0xbdcd93ae	-0.10037933
214	0xbde9a223	-0.11407878
215	0x3ddde965	0.10835532
216	0x3cd7ef01	0.026359083
217	0x3d9264dc	0.07148144
218	0x3c9452f0	0.018105954
219	0x3ce95134	0.028481103
220	0x3ca9b40f	0.020715741
221	0xbc8d7ebc	-0.017272346
222	0x3c1d441e	0.00959876
223	0x3d5041cb	0.050843995
224	0xbd92102e	-0.07131992
225	0xbd7f9d1b	-0.062405687
226	0x3d9f0bad	0.07765899
227	0xbda6fb84	-0.081534415
228	0x3de6d838	0.11271709
229	0x3d2fe1d3	0.042939972
230	0x3d5068d6	0.05088123
231	0x3d8c2a61	0.06844021
232	0xbd8a2e51	-0.067471154
233	0xbdae2e0b	-0.08504876
234	0x3e01da18	0.12680852
235	0xbd7ea3de	-0.062167995
236	0xbd3c4b0f	-0.04597002
237	0x3d2105ad	0.039312053
238	0x3d8f902a	0.07009919
239	0x3e09de35	0.13463672
240	0xbd1dbac8	-0.038508207
241	0xbda784d7	-0.08179634
242	0xbca3c532	-0.019991491
243	0x3dc41bef	0.095756404
244	0xbd9f0818	-0.07765216
245	0xbd6ad0ae	-0.05732792
246	0x3d244e82	0.040113933
247	0xbddfc914	-0.109270245
248	0x3db11a1e	0.086475596
249	0xbd83b282	-0.06430532
250	0x3a424140	0.00074102357
251	0x3dc6a26f	0.096989505
252	0x3d206e60	0.03916776
253	0xbcfb0c51	-0.030645521
254	0xbdd90c60	-0.105980635
255	0x3d87d99e	0.06633304

weight_hh_l0 f4 [256, 64]
0	0xbd13027d	-0.035891045
1	0xbddb227d	-0.106999375
2	0xbd80bee8	-0.062864125
3	0x3dea0a9f	0.11427807
4	0x3df6008d	0.12011824
5	0x3d867373	0.06564989
6	0xbd873efc	-0.0660381
7	0x3db975bf	0.090556614
8	0xbd6c2068	-0.057648093
9	0x3b29af05	0.0025891673
10	0x3d13380c	0.035942122
11	0x3e147cf8	0.14500797
12	0xbd130c5c	-0.03590046
13	0x3d5c17aa	0.053733505
14	0xbd196c8d	-0.037457038
15	0x3d931ecd	0.07183609
16	0x3dde1b9b	0.10845109
17	0x3da4b4a0	0.08042264
18	0x3ddad946	0.10685973
19	0xbd95a287	-0.0730639
20	0xbc9584a1	-0.018251719
21	0x3dacf4b2	0.084451094
22	0xbd0d49e2	-0.03449429
23	0xbe1ab840	-0.15109348
24	0xbdbaed99	-0.091273494
25	0xbdcc8c3b	-0.09987684
26	0x3cad9744	0.021190293
27	0xbd88d798	-0.06681746
28	0xbd72e350	-0.059298813
29	0xbded28e2	-0.115800634
30	0x3e1ca29e	0.15296409
31	0x3cd30f0c	0.02576401
32	0x3d6fdd9e	0.05856096
33	0xbd8664a5	-0.06562165
34	0x3dc9352d	0.098245956
35	0x3da40342	0.08008434
36	0x3df01b03	0.11723902
37	0x3d1fb7fd	0.038993824
38	0xbcf4d469	-0.029886441
39	0x3da35991	0.07976068
40	0xbc816276	-0.01579402
41	0x3dcdd4d6	0.10050361
42	0x3db5eb19	0.08882732
43	0x3cd86a6a	0.02641793
44	0x3cfd89c3	0.030949479
45	0xbde5992f	-0.11210858
46	0xbdb248fb	-0.08705326
47	0xbd13d906	-0.03609564
48	0x3d500745	0.050788183
49	0x3d6e6ba2	0.058208115
50	0xbd1787d7	-0.03699478
51	0x3d9d3254	0.07675615
52	0xbca26880	-0.01982522
53	0x3d3f0ba8	0.046641976
54	0xbdab9f39	-0.08379979
55	0xbda82cef	-0.082116954
56	0xbdc6c200	-0.09704971
57	0xbcddd781	-0.0270803
58	0x3cac9069	0.021064954
59	0x3d0f1a9c	0.034937486
60	0x3db83f94	0.089965016
61	0x3c545500	0.012959719
62	0xbdf15d87	-0.11785417
63	0xbc316d23	-0.010829243
64	0xbcb9e46b	-0.022691926
65	0xbd3826f2	-0.044959016
66	0xbd51551c	-0.051106557
67	0xbc41d7c2	-0.011831226
68	0xbc9b5559	-0.018961595
69	0xbd993201	-0.074802406
70	0xbd633d06	-0.05547812
71	0xbd943de3	-0.072383665
72	0xbd872dc1	-0.06600524
73	0x3d353494	0.044239596
74	0xbd5bae5c	-0.05363308
75	0x3e032ed9	0.1281084
76	0xbdd1cd77	-0.102442674
77	0xbca00bf5	-0.019536952
78	0x3d9eaf87	0.07748323
79	0xbd30c344	-0.04315497
80	0xbd5daaa5	-0.054117817
81	0xbdaa1463	-0.0830467
82	0x3d58b3c8	0.052905828
83	0xbdded5f0	-0.10880649
84	0x3d91ebe7	0.07125073
85	0xbd35b023	-0.04435743
86	0x3d023728	0.031790882
87	0x3cfec575	0.031100014
88	0x3da18e0f	0.07888424
89	0x3daf452d	0.08558116
90	0xbd41452c	-0.047185108
91	0xbd998d16	-0.07497613
92	0x3d83f2a1	0.06442762
93	0x3cacb848	0.021083966
94	0x3d77f9fd	0.06054114
95	0x3d1effa0	0.038818
96	0x3b8d938f	0.004320569
97	0x3c6ecdeb	0.014575462
98	0xbd9d3956	-0.076769516
99	0x3dbde6fe	0.09272574
100	0xbd30956e	-0.043111257
101	0xbda08fa4	-0.07839897
102	0x3da1a61f	0.07893013
103	0x3d7eedfd	0.062238682
104	0x3b083014	0.002078061
105	0x3da76132	0.081728354
106	0x3ca91fa8	0.020644978
107	0x3cdce658	0.026965305
108	0xbdd54752	-0.10413994
109	0x3c3bdc90	0.01146616
110	0xbd890595	-0.06690518
111	0x3d0573ec	0.032581255
112	0xbd1b9eca	-0.03799323
113	0xbdd0c332	-0.101934806
114	0x3d4d38f8	0.050103158
115	0xbc11bd11	-0.008895175
116	0xbccf5ec2	-0.025313739
117	0x3de4d837	0.11174052
118	0x3de4ac81	0.11165715
119	0x3c09fc29	0.008421936
120	0xbcfbbd3e	-0.030729886
121	0xbde85909	-0.11345107
122	0xbc2ca55e	-0.0105374735
123	0x3db5073b	0.0883927
124	0x3d437a92	0.047724314
125	0xbd1ebfa2	-0.038756974
126	0x3ddbe78e	0.10737525
127	0xbe0dd38a	-0.13850227
128	0xbdb85f7f	-0.090025894
129	0xbdea01a2	-0.11426093
130	0xbd9715e6	-0.07377224
131	0xbdb1f667	-0.08689576
132	0x3d9e5515	0.07731072
133	0xbdbc5e97	-0.09197729
134	0xbe1f1e68	-0.15538943
135	0x3dc4d6fa	0.09611316
136	0x3d1c648c	0.038181826
137	0xbdec6556	-0.11542766
138	0x3e09b3a6	0.13447437
139	0x3d37973a	0.044821955
140	0xbd9ff2d3	-0.07809987
141	0xbc9ca5a2	-0.019121949
142	0x3c2f491e	0.010698585
143	0x3c9654cc	0.018350981
144	0x3d63d2ed	0.055621076
145	0xbe19a658	-0.15004861
146	0x3d82177e	0.06352137
147	0x3dbefd22	0.09325625
148	0x3de536aa	0.11192067
149	0xbceebd99	-0.029143142
150	0xbd7adbb9	-0.0612447
151	0xbe20594f	-0.15659069
152	0xbd98f1f3	-0.07468023
153	0x3be3acf9	0.00694811
154	0xbda60622	-0.081066385
155	0x3d8fcd03	0.07021525
156	0x3db7f447	0.08982139
157	0x3d2119de	0.03933131
158	0x3dcbcf7e	0.09951685
159	0xbcd8f288	-0.026482835
160	0x3cfd5196	0.030922692
161	0x3cd1941b	0.025583318
162	0xbd1580a9	-0.036499653
163	0x3d275a84	0.040857807
164	0xbd492370	-0.04910606
165	0x3cf14673	0.029452538
166	0xbdadc455	-0.08484713
167	0x3d391e65	0.045195002
168	0x3d3ba3ea	0.045810618
169	0x3e1997ad	0.14999266
170	0xbd52518c	-0.0513473
171	0xbd47079f	-0.048591252
172	0xbdcae64d	-0.09907208
173	0x3d43f253	0.04783852
174	0xbe00c581	-0.12575342
175	0xbd705b1a	-0.05868063
176	0xbcf19854	-0.029491581
177	0xbde25a07	-0.110523276
178	0xbd6a8b54	-0.05726178
179	0xbd7a4e55	-0.06110986
180	0xbdbcdbfd	-0.09221647
181	0x3cd24552	0.02566782
182	0x3de0b8f8	0.1097278
183	0xbe0a4a47	-0.13504897
184	0xbd207c5a	-0.03918109
185	0xbd7104c0	-0.05884242
186	0x3dc6e2e0	0.09711242
187	0x3d96d800	0.073654175
188	0x3d050b3f	0.03248143
189	0x3c9da842	0.01924527
190	0xbd726174	-0.05917497
191	0x3d85287b	0.06501862
192	0x3d0b329f	0.033983823
193	0xbda3c92b	-0.07997354
194	0x3c8be924	0.017078944
195	0x3bfa28e6	0.00763427
196	0xbd5e06f1	-0.05420584
197	0xbd73b8e0	-0.059502482
198	0x3d9205e9	0.071300335
199	0x3cf74820	0.030185759
200	0x3d624465	0.055241007
201	0x3db6b573	0.089213274
202	0x3d70729f	0.05870306
203	0x3d1a2af2	0.037638612
204	0xbc514663	-0.012773129
205	0xbd795fe3	-0.06088246
206	0xbdc4be51	-0.096066125
207	0xbd2d545f	-0.04231679
208	0xbde06ced	-0.10958276
209	0xbc160c73	-0.009158242
210	0x3d193c20	0.037410855
211	0xbb87b081	-0.004140914
212	0x3ca40cee	0.020025697
213	0xbe0c7eb6	-0.13720211
214	0x3de1a4fd	0.11017797
215	0xbcbda404	-0.023149498
216	0x3db1c851	0.086807854
217	0x3dbe9858	0.09306401
218	0xbd5e3565	-0.05425014
219	0xbc0cdbc5	-0.008597319
220	0xbda2ef2a	-0.07955773
221	0x3d2a34c6	0.041554235
222	0x3d2d810f	0.042359408
223	0x3d55c763	0.052192103
224	0xbdd2a70c	-0.10285768
225	0xb9b8255c	-0.0003512305
226	0x3dfbf2cd	0.1230217
227	0x3de30f67	0.11086922
228	0x3e260d09	0.1621591
229	0xbe0c210e	-0.13684484
230	0xbcd9ab10	-0.026570827
231	0x3d69d280	0.057085514
232	0xbe051c9e	-0.12999198
233	0x3c88cb2c	0.016698442
234	0xbd600a35	-0.054697234
235	0x3d609fd7	0.054839935
236	0x3d08db27	0.033412125
237	0xbd9e4770	-0.07728469
238	0x3de1790f	0.11009418
239	0x3d9cbe25	0.07653455
240	0xbbeadf17	-0.0071677077
241	0x3d293177	0.04130694
242	0xbd8baed9	-0.06820459
243	0xbc6b87ee	-0.01437567
244	0x3d910f93	0.07083049
245	0xbd26ca8f	-0.04072052
246	0x3ddad695	0.106854595
247	0x3deccafd	0.115621544
248	0x3dcdb60e	0.1004449
249	0xbdaef596	-0.085429356
250	0x3d6135df	0.054983016
251	0x3d86f3d2	0.06589474
252	0x3ca48030	0.020080656
253	0xbdace374	-0.08441821
254	0x3df43cad	0.119256355
255	0xbe0afc15	-0.13572724

bias_ih_l0 f4 [256]
0	0x3d1e072b	0.038581055
1	0xbba51f9f	-0.00503917
2	0x3e19970a	0.14999023
3	0x3e430c36	0.19047627
4	0x3dd0ed24	0.10201481
5	0x3e1db3ae	0.15400574
6	0x3d6546d1	0.05597574
7	0x3e6b31bc	0.22968191
8	0x3e6b807a	0.22998229
9	0x3e662965	0.22476728
10	0x3d88d17f	0.06680583
11	0x3e4210f6	0.18951783
12	0x3e329928	0.17441237
13	0x3c7a1fe8	0.015266396
14	0x3d2dfc62	0.04247702
15	0x3e47662f	0.19472574
16	0xbcd8e6ce	-0.026477244
17	0x3e25b923	0.16183905
18	0x3e6dc2ef	0.23218893
19	0x3da9a2fb	0.08283039
20	0x3e70aab6	0.23502621
21	0x3d1af3ad	0.037830044
22	0x3d3cde7d	0.04611062
23	0xbd3a9249	-0.045549665
24	0x3cedce91	0.029029163
25	0x3e7d1619	0.24715461
26	0x3e29f0a1	0.16595699
27	0xbdc267b2	-0.094924346
28	0x3da3c9a4	0.07997444
29	0x3e21b085	0.15789993
30	0x3e0cc48c	0.13746852
31	0x3d9c667a	0.07636733
32	0x3e53cebd	0.20684333
33	0x3d9f52b8	0.07779449
34	0x3db235d9	0.08701677
35	0xbd4800b9	-0.048828814
36	0x3e6be898	0.23037946
37	0x3e39e05e	0.18151996
38	0x3e81b185	0.2533075
39	0x3df349b2	0.11879291
40	0x3e6657ad	0.22494383
41	0x3da5aef9	0.08090014
42	0x3cc236d9	0.023707794
43	0x3d010aa0	0.031504273
44	0x3e16252c	0.14662617
45	0x3c6e7adc	0.014555659
46	0x3df763c3	0.12079575
47	0x3de2878a	0.11061008
48	0x3db6f928	0.089342415
49	0x3dd4132a	0.10355218
50	0x3de03f2f	0.10949551
51	0x3d41dc3e	0.04732918
52	0xbd9ad89c	-0.07560846
53	0x3e4582d9	0.19288196
54	0x3e7ea74b	0.24868505
55	0x3d2e513e	0.042557947
56	0x3e34b134	0.17645723
57	0x3e65e717	0.22451435
58	0x3de373af	0.11106049
59	0x3d9e2e19	0.07723636
60	0x3e54e6e9	0.2079121
61	0x3d8c5d67	0.068537526
62	0x3df5be56	0.11999194
63	0x3dd60b8a	0.1045142
64	0x3d3b3191	0.045701567
65	0x3dbe190b	0.0928212
66	0x3ea936df	0.33049676
67	0x3eb46696	0.35234517
68	0x3ea3d0e4	0.31995308
69	0x3dd8db50	0.105887055
70	0x3eb25bf1	0.3483577
71	0x3dc8f5e2	0.098125234
72	0x3ecf314e	0.40467304
73	0x3e1f130b	0.15534608
74	0x3e5d6a2a	0.2162253
75	0x3e560a34	0.2090233
76	0x3e059bdd	0.13047738
77	0x3ed77298	0.42079616
78	0x3e26c1f0	0.16284919
79	0x3d93e5b6	0.07221548
80	0xbd973722	-0.073835626
81	0x3e92e9c3	0.2869397
82	0x3e8ece07	0.2789156
83	0x3e9ed8e7	0.31024858
84	0x3e230a60	0.15921926
85	0x3e1b0d0e	0.15141699
86	0x3e6b768c	0.22994441
87	0x3f0a8786	0.5411304
88	0x3e4d9bde	0.2007899
89	0x3eae0a25	0.33992115
90	0xbc98aad3	-0.018636143
91	0x3f030c8b	0.51191014
92	0xbd5e542a	-0.054279484
93	0x3ed4c694	0.41557753
94	0x3df03fec	0.11730942
95	0x3e459197	0.1929382
96	0x3ddacde6	0.10683803
97	0x3e096ee6	0.1342121
98	0x3e8508bc	0.25983226
99	0x3efe1af2	0.49629933
100	0x3e782a98	0.24234998
101	0x3e90f1d5	0.28309503
102	0x3e4ec1c9	0.2019111
103	0x3e6d494a	0.23172489
104	0x3e812497	0.25223228
105	0x3dad8dd5	0.08474318
106	0x3e705245	0.23468883
107	0x3e77d7ea	0.24203458
108	0x3e534d58	0.20634973
109	0x3daece48	0.08535439
110	0x3e79efe3	0.24407916
111	0x3d6a8265	0.05725326
112	0x3e1fdbf6	0.15611252
113	0x3d2701e9	0.040773306
114	0x3d1aaecd	0.03776436
115	0x3e62bd76	0.22142586
116	0x3f0095ee	0.50228775
117	0x3bba8c5a	0.0056930007
118	0x3e696d72	0.22795656
119	0xbc876e71	-0.016532155
120	0x3e6fc456	0.2341474
121	0x3db6d655	0.08927599
122	0x3e346d5c	0.17619842
123	0x3e404559	0.18776454
124	0x3e98e342	0.29860884
125	0x3e25273c	0.16128248
126	0x3e8cf906	0.2753374
127	0xbcb49526	-0.022043776
128	0xbe1aaad1	-0.15104224
129	0xbd72af40	-0.059249163
130	0xbdef0ea8	-0.11672717
131	0x3ce83536	0.028345685
132	0x3e1e21ac	0.15442532
133	0xbe4db260	-0.20087576
134	0xbd01463a	-0.031561114
135	0x3d048ffd	0.03236388
136	0xbe805534	-0.25065005
137	0xbe3042e6	-0.1721302
138	0x3dda985b	0.10673591
139	0x3defb89c	0.11705133
140	0x3cd78ea6	0.026313137
141	0x3d71cc6c	0.059032843
142	0xbd3a3c5b	-0.045467716
143	0xbd93e2e5	-0.07221011
144	0x3c7ac070	0.01530467
145	0xbd475429	-0.048664246
146	0xbdd8fe1a	-0.10595341
147	0x3c119d18	0.008887552
148	0xbe36174d	-0.17782326
149	0xbdbf7e0b	-0.09350213
150	0x3d8c7a3a	0.0685925
151	0x3dc5d22f	0.0965923
152	0xbd87324f	-0.066013925
153	0x3d569962	0.05239237
154	0xbeab5c15	-0.3346869
155	0x3ce2f331	0.027703853
156	0xbd96c35a	-0.07361479
157	0xbe2e4ade	-0.17020747
158	0x3ea09fb0	0.31371832
159	0xbe306e91	-0.17229678
160	0xbccd7a5c	-0.02508276
161	0x3c838e7c	0.016059153
162	0x3d75ad1b	0.05997954
163	0x3ecde671	0.40214875
164	0x3d9a1e18	0.07525271
165	0xbd7a9f12	-0.061186858
166	0xbe2184bd	-0.15773292
167	0x3e44a1ff	0.19202422
168	0xbc5cda7e	-0.013479827
169	0x3e3c1a5f	0.18369435
170	0xbcc2c5e0	-0.023775995
171	0x3de592f1	0.112096675
172	0xbd98b26b	-0.074559055
173	0x3e3ec040	0.18628025
174	0x3b107513	0.0022042438
175	0xbc8882c8	-0.016663924
176	0xbdbc0427	-0.091804795
177	0x3d1fa286	0.038973354
178	0xbe85d3e6	-0.26138228
179	0x3db9dc7f	0.090752594
180	0x3e73cb88	0.2380811
181	0xbd6bbe57	-0.05755457
182	0x3dfcb98c	0.12340078
183	0xbcbe735e	-0.02324837
184	0xbc44bc7e	-0.012007831
185	0x3d79b996	0.060968004
186	0xbd2e2a65	-0.0425209
187	0xbe1e9af7	-0.15488802
188	0xbd230393	-0.03979833
189	0xbe938d1e	-0.288186
190	0xbcef6010	-0.02922061
191	0xbe3585f2	-0.17726877
192	0x3e678e8f	0.22612976
193	0x3dddad17	0.1082403
194	0x3ed640be	0.4184627
195	0x3eb3bacf	0.3510346
196	0x3ec61b32	0.38692623
197	0x3d10f246	0.0353873
198	0x3e7da1a8	0.24768698
199	0x3e18f6ab	0.14937846
200	0x3ed46ec8	0.4149077
201	0x3eae0581	0.33988574
202	0x3dba2d4e	0.090906724
203	0x3d632f4d	0.05546503
204	0x3e81bd52	0.25339752
205	0x3eaab513	0.33341274
206	0x3ddf7d75	0.10912601
207	0x3e385933	0.18002777
208	0x3d391872	0.04518933
209	0x3e7e1b5b	0.24815123
210	0x3e2649c4	0.16239077
211	0x3e6a06ef	0.22854207
212	0x3ecc0739	0.3984926
213	0x3e527ea1	0.20556118
214	0x3e4cf498	0.2001518
215	0x3eb46f84	0.3524133
216	0x3e92812e	0.2861418
217	0x3eb2fdb7	0.34959194
218	0x3e005e02	0.12535861
219	0x3eec4aed	0.46150914
220	0x3d0b2962	0.033975013
221	0x3e960891	0.2930341
222	0x3eb28e4c	0.3487419
223	0x3e14c9d4	0.14530116
224	0x3e5bfa0e	0.21482107
225	0x3e1a7f96	0.15087733
226	0x3e6b9d1f	0.23009156
227	0x3ee6f139	0.45105913
228	0x3db472f1	0.08810986
229	0x3e917180	0.28406906
230	0x3e87eca2	0.26547724
231	0x3e2cdbb2	0.16880682
232	0x3e4794c4	0.19490343
233	0x3dac33bb	0.08408304
234	0x3e54dc46	0.20787153
235	0x3dd357f8	0.10319513
236	0x3e5d3a04	0.21604162
237	0x3e84a2a6	0.2590534
238	0x3de436e4	0.11143282
239	0x3e18e2fd	0.14930339
240	0x3dcc7c6c	0.09984669
241	0x3d40d116	0.0470744
242	0x3e99d603	0.3004609
243	0x3e9b40ab	0.30322775
244	0x3eabd2bb	0.33559212
245	0x3d9865f1	0.07441319
246	0x3ee36949	0.44416264
247	0x3e7f2954	0.24918109
248	0x3eaeea54	0.34163153
249	0x3d34007d	0.04394578
250	0x3dca8006	0.098877
251	0x3e73eadc	0.2382006
252	0x3e6f60c1	0.23376752
253	0x3e4b3e95	0.19848092
254	0x3ea31a5d	0.3185605
255	0xbc7dac84	-0.015483025

bias_hh_l0 f4 [256]
0	0x3e372d3f	0.17888354
1	0x3e1a36fe	0.1506004
2	0x3d8debdb	0.069297515
3	0x3e2074a8	0.15669501
4	0x3e3ef3f4	0.18647748
5	0x3e10d693	0.14144354
6	0x3dddf778	0.108382165
7	0x3d0cb9ed	0.034357
8	0x3e1eb1c9	0.15497507
9	0x3dfbaea3	0.12289169
10	0x3b0e7421	0.0021736699
11	0xbd028b3e	-0.031871073
12	0x3e7b782f	0.24557565
13	0x3d7a8198	0.061158746
14	0x3da302cd	0.079595186
15	0x3e822574	0.254192
16	0xbd4e2968	-0.050332457
17	0x3e1ebaae	0.155009
18	0x3e0d0147	0.13770019
19	0x3e5e00eb	0.21680038
20	0x3e952f16	0.29137486
21	0x3bcaf230	0.006193422
22	0x3e265145	0.1624194
23	0xbc852952	-0.016255055
24	0x3e3c4eb5	0.183894
25	0x3e696452	0.22792175
26	0x3e17143a	0.1475381
27	0xbc912264	-0.017716594
28	0xbce3b771	-0.027797433
29	0x3e630b36	0.22172245
30	0x3df0aa8b	0.117512785
31	0x3e25bb50	0.16184735
32	0x3db25773	0.08708086
33	0xbbb3f033	-0.0054912805
34	0x3e551ba1	0.20811321
35	0x3da8b801	0.08238221
36	0x3da98a9d	0.082783915
37	0x3dfae3af	0.122504584
38	0x3e2f109e	0.17096183
39	0x3dc64a15	0.09682099
40	0x3e46e41c	0.19422954
41	0x3d52ac8f	0.051434096
42	0xbc4ec296	-0.012619635
43	0x3e517952	0.20456436
44	0x3d4026da	0.04691205
45	0x391cbe39	0.00014948183
46	0x3da73e61	0.08166195
47	0x3da465d2	0.08027233
48	0x3b90843f	0.004410296
49	0x3e097166	0.13422164
50	0x3e002c1f	0.12516831
51	0x3e134944	0.14383417
52	0xbe193ee8	-0.14965403
53	0x3e1f517a	0.15558425
54	0x3e94b898	0.29047084
55	0x3dbd4f8c	0.09243688
56	0x3db06a15	0.086139835
57	0x3da2683b	0.07930037
58	0x3d8876eb	0.06663307
59	0x3e396cf0	0.18107963
60	0x3d3c947f	0.046040054
61	0x3e3fbb4d	0.18723793
62	0x3e0dd232	0.13849714
63	0x3c254594	0.0100873895
64	0xbcc3535e	-0.023843464
65	0x3e301a8e	0.1719763
66	0x3e930a5f	0.2871885
67	0x3e1567c1	0.1459036
68	0x3de24f53	0.11050286
69	0xbc4bfe5e	-0.012450783
70	0x3e8d663a	0.27617055
71	0x3d1ceb89	0.03831056
72	0x3e70a7e2	0.23501542
73	0x3eaf1709	0.34197262
74	0x3e17359a	0.14766541
75	0x3e5e7e18	0.21727788
76	0x3de8e3af	0.11371552
77	0x3ee40648	0.44536042
78	0x3db72c85	0.08944038
79	0x3dfa3a40	0.122181416
80	0x3d9c9539	0.076456495
81	0x3e3c8f2b	0.18413989
82	0x3e86cd09	0.26328304
83	0x3e89d6e5	0.26921764
84	0x3e8d5ab9	0.27608278
85	0x3dff0c1c	0.124534816
86	0x3e01ffcb	0.12695234
87	0x3ecc2e75	0.39879194
88	0x3e2573df	0.16157483
89	0x3e3cac9b	0.18425219
90	0xba8ac924	-0.0010588509
91	0x3f10e9d7	0.5660681
92	0x3d547754	0.051871613
93	0x3ed6d245	0.41957298
94	0x3e886fc9	0.26647785
95	0x3c790f64	0.015201423
96	0x3e07efed	0.13275118
97	0x3e1728a4	0.14761597
98	0x3dba83fe	0.09107207
99	0x3f11eaa0	0.56998634
100	0x3e14e2bb	0.14539616
101	0x3e7beaa8	0.24601233
102	0x3e89f48d	0.2694439
103	0x3e494c36	0.19657978
104	0x3e405679	0.18782987
105	0x3d21467b	0.039373856
106	0x3e03a820	0.12857103
107	0x3dc71795	0.09721295
108	0x3ed74d33	0.42051086
109	0x3e64439f	0.2229142
110	0x3d8b052e	0.06788097
111	0x3d9c627a	0.076359704
112	0x3e81eb6a	0.2537492
113	0x3e1de1c6	0.15418157
114	0x3e11a582	0.14223292
115	0x3e92e96e	0.28693718
116	0x3ef9f9e5	0.48823467
117	0x3e00af50	0.12566876
118	0x3ebeeef9	0.37291697
119	0x3c6d4f00	0.014484167
120	0x3e8336ff	0.25627896
121	0x3e1f88c4	0.15579516
122	0xbb0b589f	-0.002126254
123	0x3cbffb42	0.023435239
124	0x3e84729f	0.258687
125	0x3e8570ec	0.26062715
126	0x3e2fd01a	0.17169228
127	0x3d375511	0.04475886
128	0xbd75f33c	-0.06004642
129	0xbd92a2fa	-0.071599916
130	0xbd760a4a	-0.060068406
131	0xbe42bbb8	-0.19016922
132	0x3e31dc6d	0.17369242
133	0xbe108515	-0.14113267
134	0x3d98aec5	0.0745521
135	0xbcb7b90a	-0.0224271
136	0xbd9051ae	-0.07046829
137	0xbbf36850	-0.0074282065
138	0x3bf508b7	0.0074778455
139	0x3de53bda	0.111930564
140	0x3e6886fd	0.22707744
141	0xbd873bbe	-0.06603192
142	0xbdb24eee	-0.08706461
143	0xbd70765a	-0.05870662
144	0x3c74536b	0.0149124665
145	0x3e20a08e	0.15686247
146	0xbe1605ce	-0.14650652
147	0x3e4c4236	0.19947132
148	0xbe3cfb80	-0.18455315
149	0xbe3be2a5	-0.18348177
150	0xbd0524e4	-0.032505885
151	0xbde14952	-0.11000313
152	0xbd320363	-0.04346026
153	0xbd847cf8	-0.064691484
154	0xbeac0bc9	-0.3360274
155	0xbe3509fd	-0.17679591
156	0xbdaa3b3e	-0.08312081
157	0xbd715a23	-0.05892385
158	0x3ebf2cbc	0.37338817
159	0xbc7c375b	-0.015394057
160	0x3e4d2780	0.200346
161	0xbca20601	-0.019778254
162	0x3dd8810e	0.1057149
163	0x3ed7b9f9	0.42134073
164	0x3e88e893	0.2673994
165	0x3d8d240b	0.0689164
166	0xbe533940	-0.20627308
167	0x3eadea19	0.33967665
168	0x3d9d6c44	0.07686666
169	0x3e12763f	0.1430292
170	0xbd800ea4	-0.062527925
171	0xbcd71ada	-0.026257921
172	0xbd8be116	-0.06830041
173	0xbd7cf5d0	-0.061757863
174	0xbe29203b	-0.16516201
175	0x3e021ea6	0.12707004
176	0xbdd2762a	-0.10276444
177	0xbcdceda5	-0.026968786
178	0xbe1c9ff4	-0.15295392
179	0xbe001071	-0.12506272
180	0x3d3b669d	0.045752157
181	0xbd99c8ad	-0.07508979
182	0x3e0fc469	0.14039768
183	0xbe023def	-0.12718938
184	0xbe0b7854	-0.1362012
185	0x3cc4df02	0.02403212
186	0x3d8b8c01	0.06813813
187	0xbde196b4	-0.110150725
188	0xbe44e4cc	-0.19227904
189	0xbe7ec335	-0.24879153
190	0x3d1f2e39	0.03886244
191	0xbdf38ef8	-0.118925035
192	0x3d23a626	0.039953373
193	0x3d61291c	0.054970846
194	0x3eb89a37	0.36055157
195	0x3eb00d81	0.34385303
196	0x3eab3aaf	0.3344321
197	0x3dbfd2b4	0.0936636
198	0x3e4cfd04	0.20018393
199	0x3e8df90a	0.27729064
200	0x3e837b19	0.25679854
201	0x3e26aec3	0.16277604
202	0x3e9572b1	0.29189065
203	0x3e4a1a7c	0.19736665
204	0x3de187a0	0.110121965
205	0x3e3d5269	0.18488468
206	0x3e53038e	0.20606825
207	0x3ea70f15	0.32628694
208	0xbc860cc1	-0.016363503
209	0x3ecb9d85	0.39768615
210	0x3e07783a	0.13229457
211	0x3ea87458	0.32901263
212	0x3e693cbf	0.22777079
213	0x3dd22949	0.10261781
214	0x3e2da887	0.1695882
215	0x3edea496	0.43484944
216	0x3dcd0fbf	0.10012769
217	0x3e8e6bb1	0.27816537
218	0x3e3beb41	0.18351461
219	0x3ec5fb7d	0.38668433
220	0x3e651700	0.22372055
221	0x3ec2eab4	0.3806969
222	0x3eb0580e	0.3444218
223	0x3e5b28c3	0.21402268
224	0x3e1b4296	0.1516212
225	0x3e0f5ec4	0.14000994
226	0x3e8cfbd9	0.27535895
227	0x3ef3ad96	0.47593373
228	0x3e8f4aad	0.2798666
229	0x3ea5a200	0.3235016
230	0x3eb7bf12	0.35887963
231	0x3e90cc49	0.28280857
232	0x3e868bf3	0.26278648
233	0x3c4c246f	0.012459858
234	0x3df69380	0.12039852
235	0x3e62e612	0.22158077
236	0x3eae4eb5	0.34044424
237	0x3e09562e	0.13411781
238	0x3e80323d	0.2503833
239	0x3cf790ba	0.030220378
240	0x3daa9585	0.083293
241	0xbd124fce	-0.03572064
242	0x3e1e3ea5	0.15453584
243	0x3e545fc6	0.2073966
244	0x3ee50b4f	0.4473519
245	0x3e235001	0.15948488
246	0x3ea87f56	0.3290965
247	0x3e168951	0.1470082
248	0x3ea78c8c	0.32724416
249	0x3e90f084	0.283085
250	0x3e277f2a	0.16357103
251	0x3e4d1708	0.20028317
252	0x3e46e7cb	0.1942436
253	0x3e79b1cc	0.2438423
254	0x3e02fe48	0.12792313
255	0x3d284fa5	0.04109158

weight f4 [18, 64]
0	0xbeee5d0f	-0.46555373
1	0xbdf03e9e	-0.11730693
2	0xbec759f0	-0.38935804
3	0x3e63c424	0.2224279
4	0xbdf32a2e	-0.118732795
5	0xbf0ba0cf	-0.5454225
6	0xbe6442ef	-0.22291158
7	0xbf1abdeb	-0.6044604
8	0x3ddbb9bc	0.107287854
9	0xbf353943	-0.707905
10	0xbe8f6297	-0.28004906
11	0x3dce059d	0.100596644
12	0x3f08b846	0.5340618
13	0xbe73f823	-0.23825125
14	0x3ecabbf8	0.39596534
15	0xbf1ac969	-0.6046358
16	0x3e546b27	0.20744
17	0xbf4530b6	-0.7702745
18	0xbc70e77e	-0.01470363
19	0xbe7d38f9	-0.24728765
20	0x3f8e699f	1.1125983
21	0xbcfb0aab	-0.030644735
22	0xbebe2e1c	-0.37144554
23	0xbecc1842	-0.39862257
24	0xbd05faea	-0.032709993
25	0xbe97cf47	-0.29650328
26	0xbed99c61	-0.4250212
27	0x3e323fb7	0.17407118
28	0xbf16fd2b	-0.58980054
29	0xbeb13484	-0.3461038
30	0xbddabc33	-0.106804274
31	0xbea16e37	-0.315294
32	0x3f043c02	0.51654065
33	0x3d801b0f	0.06255161
34	0xbeea3cfd	-0.45749655
35	0xbd5c54aa	-0.05379168
36	0x3e681f58	0.22668207
37	0xbd3d5d41	-0.046231512
38	0x3f532ba2	0.82488453
39	0x3b48184c	0.003053206
40	0x3e8151e1	0.2525778
41	0x3ca998b9	0.020702707
42	0xbec9e5a3	-0.3943301
43	0x3e0e7a08	0.13913739
44	0x3e44fa75	0.19236167
45	0x3d9f9941	0.07792903
46	0xbeee5784	-0.46551144
47	0xbd8513a7	-0.06497889
48	0x3c86df08	0.016463771
49	0x3dba0738	0.09083408
50	0x3f39a89c	0.725229
51	0x3f26bf24	0.6513541
52	0xbf367b38	-0.71281767
53	0x3ec4bcfb	0.3842543
54	0x3d99defe	0.075132355
55	0xbcfc8ea3	-0.030829733
56	0x3c03244c	0.008004259
57	0x3f01b8fb	0.5067288
58	0xbeb13d2a	-0.34616977
59	0x3bf59ab7	0.00749525
60	0x3e7ea5ca	0.24867931
61	0xbe35d517	-0.17757069
62	0xbd8211c6	-0.06351046
63	0x3edf5275	0.43617597
64	0xbc4b70c6	-0.012417024
65	0xbd19aacb	-0.037516396
66	0xbeaabd33	-0.33347473
67	0xbefbdd1b	-0.49192128
68	0x3e27c031	0.16381909
69	0xbe8295af	-0.25504825
70	0x3eb9e0e3	0.36304387
71	0x3e837468	0.25674748
72	0x3f70379e	0.93834865
73	0x3eba2754	0.3635813
74	0x3e1d8248	0.1538173
75	0x3e74cf48	0.23907197
76	0x3d8ab7c7	0.06773334
77	0x3f04279b	0.51622933
78	0xbe3381e6	-0.17530021
79	0x3f0d4314	0.5518048
80	0x3db88905	0.090105094
81	0x3ee040e6	0.43799514
82	0x3e92e21d	0.28688136
83	0xbf1229ab	-0.5709483
84	0xbc177b0b	-0.009245644
85	0x3da4823d	0.080326535
86	0x3da1eaa0	0.07906079
87	0x3f7359c9	0.95058876
88	0x3e066795	0.13125451
89	0xbc06fc06	-0.008238798
90	0xbdc0b974	-0.094103724
91	0xbe481481	-0.19539072
92	0xbd96427b	-0.07336899
93	0x3e3f47b4	0.18679696
94	0x3e97d0de	0.2965154
95	0xbf1f6799	-0.6226745
96	0x3ea7dd6c	0.3278612
97	0xbe351ad4	-0.17686015
98	0x3e7ea039	0.24865808
99	0x3e3e2e5a	0.18572369
100	0xbda0ec15	-0.07857529
101	0xbef2dfc6	-0.4743635
102	0xbdcdbf13	-0.1004621
103	0xbdd27b11	-0.10277379
104	0xbe611010	-0.21978784
105	0xbea2012e	-0.31641525
106	0x3ed16bf2	0.40902668
107	0x3cb2f939	0.021847354
108	0xbe2f19c9	-0.1709968
109	0xbe764218	-0.2404865
110	0x3db6a0e0	0.08917403
111	0xbeac06ec	-0.3359903
112	0xbd92a232	-0.071598426
113	0xbe981bc9	-0.29708698
114	0x3e824903	0.2544633
115	0x3f04364f	0.5164537
116	0xbec580d3	-0.38574848
117	0x3dea12ab	0.11429342
118	0x3edf41ec	0.43604982
119	0xbf13dd42	-0.5775949
120	0xbe93824a	-0.2881034
121	0xbda227fe	-0.07917784
122	0x3c6d926e	0.014500244
123	0x3e9d3d75	0.3071095
124	0xbef97fb6	-0.48730248
125	0xbe04a955	-0.1295522
126	0x3ebd1c2d	0.3693556
127	0x3e2d1552	0.16902664
128	0x3d94b46c	0.07260975
129	0x3e7b9854	0.24569827
130	0xbf1c6e8e	-0.61106193
131	0x3edb168f	0.42790648
132	0xbf631422	-0.88702595
133	0xbda191ac	-0.07889113
134	0x3e896d35	0.2684113
135	0xbe6bd8fc	-0.23031992
136	0x3f1b348e	0.6062707
137	0xbf10e6b1	-0.5660201
138	0x3e3db919	0.1852764
139	0xbe45fbd2	-0.19334343
140	0xbe440ae5	-0.19144781
141	0x3e245653	0.16048555
142	0xbe83425b	-0.25636563
143	0x3de5241d	0.11188529
144	0x3e30d8f2	0.17270258
145	0x3ed1dd1f	0.40989015
146	0xbf2518f4	-0.644912
147	0x3da9c2c0	0.08289099
148	0xbe246bb8	-0.16056716
149	0xbe20e3b3	-0.1571186
150	0x3e594124	0.21216255
151	0xbf86b153	-1.0522865
152	0xbf2003cd	-0.625058
153	0x3edf1a48	0.43574739
154	0x3dca5b75	0.09880725
155	0x3e72d2d1	0.23713233
156	0x3e23d71a	0.16000023
157	0x3f31ee07	0.69503826
158	0xbf00f641	-0.50375754
159	0xbdf32f22	-0.11874224
160	0xbf364476	-0.71198213
161	0x3dc4440e	0.09583293
162	0x3e5a59c9	0.21323313
163	0xbd191e57	-0.03738245
164	0xbe658395	-0.22413476
165	0xbf06319f	-0.52419466
166	0xbf021b27	-0.5082268
167	0x3e87b691	0.26506475
168	0x3d1dba7b	0.03850792
169	0x3cc1bf90	0.023650914
170	0x3e947da9	0.2900212
171	0x3de83bb6	0.11339514
172	0x3d76e009	0.06027225
173	0x3e9ef9ca	0.3104995
174	0x3b8133d4	0.003942946
175	0xbe11ae5e	-0.14226672
176	0xbd07e50e	-0.033177428
177	0xbe202430	-0.15638804
178	0xbecb5a02	-0.39717108
179	0xbe8bb907	-0.27289602
180	0xbfb2ddff	-1.3973998
181	0xbe3d5e00	-0.1849289
182	0x3dbe88c5	0.093034305
183	0x3e95ef36	0.29284066
184	0xbe9f00e5	-0.3105537
185	0xbdb73780	-0.08946133
186	0x3eae5c35	0.34054723
187	0xbe31edb0	-0.17375827
188	0x3ee10f26	0.4395687
189	0xbd79b8e6	-0.06096735
190	0xbed90398	-0.42385554
191	0xbcd940d5	-0.026520172
192	0xbe11889c	-0.14212269
193	0x3ad81e43	0.0016488511
194	0xbf64a3ac	-0.89312243
195	0xbeb5f898	-0.35541224
196	0xbf11159a	-0.56673586
197	0x3d2517ea	0.04030601
198	0x3d11c352	0.035586663
199	0x3ecb562f	0.3971419
200	0xbf5112ef	-0.81669515
201	0x3e74b56f	0.23897336
202	0x3bfc22e6	0.00769459
203	0x3df3883f	0.11891221
204	0x3d920945	0.07130674
205	0xbeadb4d4	-0.33927023
206	0x3e0f7d1b	0.14012568
207	0xbe8dc540	-0.27689552
208	0x3d37d1de	0.04487788
209	0x3e6769ff	0.22599028
210	0xbdfac3fe	-0.12244414
211	0xbe1b9637	-0.15194021
212	0x3d854352	0.06506981
213	0x3d04413c	0.032288775
214	0xbef52948	-0.47883058
215	0xbebd2f7b	-0.36950287
216	0xbb7c2bd3	-0.003847827
217	0xbe1514a1	-0.1455865
218	0x3df721db	0.12067004
219	0xbdfe90bc	-0.1242995
220	0xbe224338	-0.15845954
221	0xbec0d5fe	-0.37663263
222	0x3d30963c	0.043112025
223	0xbecc0629	-0.3984845
224	0x3e916380	0.28396225
225	0x3e3d546e	0.18489239
226	0xbe67749d	-0.22603078
227	0x3dc1da7d	0.094655015
228	0x3ebf5100	0.37366486
229	0x3d9b252b	0.075754486
230	0x3daa5eaa	0.08318837
231	0xbdd6eddd	-0.104945876
232	0xbeb36b4d	-0.35042801
233	0xbe39efc4	-0.1815787
234	0x3c0de605	0.008660798
235	0x3ebfb04f	0.374392
236	0x3ee43df8	0.44578528
237	0x3ea2916d	0.31751576
238	0x3d331df0	0.043729722
239	0x3d7f0988	0.06226495
240	0xbe731bd6	-0.23741087
241	0x3ca6e345	0.020372042
242	0xbd9518f7	-0.07280152
243	0x3f00609f	0.5014743
244	0x3f6b518a	0.91921294
245	0x3e2ee115	0.1707805
246	0x3ec4188d	0.3829998
247	0xbe23c9f3	-0.15995006
248	0xbf404653	-0.75107306
249	0xbf031351	-0.5120135
250	0xbe50a115	-0.20373948
251	0x3e2e09ea	0.1699597
252	0x3f0666e7	0.52500767
253	0x3f67399a	0.9032227
254	0xbe64dc73	-0.2234972
255	0x3b3ad2fb	0.0028507102

bias f4 [18]
0	0x3f2e6e33	0.681369
1	0x3d95ddef	0.07317721
2	0xbe8735f6	-0.26408356
3	0xbd5104fc	-0.051030144
4	0x3df4bc31	0.11949957
5	0xbe24266c	-0.16030282
6	0xbf12feeb	-0.57420224
7	0x3e9c76a4	0.30559266
8	0xbf27291f	-0.6529712
9	0xbee8b1e0	-0.45448208
10	0x3f9d256b	1.2277044
11	0xbcd44bcf	-0.025915055
12	0xbcbe3d12	-0.02322248
13	0xbdde5d91	-0.1085769
14	0x3da1785a	0.07884283
15	0xbe43218b	-0.19055764
16	0x3eb1f95f	0.34760568
17	0xbd8f8432	-0.07007636
